pretrained_encoder.pt (torch_old, 41459 bytes, 8 tensors)

weight f4 [4, 1, 3, 3]
000000 2c 4f 00 be bf 32 77 bd 96 58 f4 3d 5d 62 60 bd
       -0.12530202 -0.06035113 0.11930959 -0.054781307
000010 a7 ee 4b be a9 41 06 be 22 c5 c5 bd 54 a8 45 3e
       -0.19915257 -0.13110985 -0.09656741 0.19302493
000020 1b 38 1c 3d ca c5 15 be 85 3d 1e be c7 72 4c be
       0.038139444 -0.14626232 -0.15453155 -0.19965659
000030 85 0a 32 be d2 16 1a be 6d ab 00 be 12 3c 3f be
       -0.17386825 -0.15047768 -0.12565394 -0.18675259
000040 e8 3b 2d be 58 e4 2b be dc 41 ae 3e ba 9c c0 3e
       -0.16917384 -0.16786325 0.34034622 0.37619573
000050 65 bb a0 3e 43 93 cf 3e ab 13 cb 3e 72 08 5f 3e
       0.3139297 0.4054204 0.39663443 0.21780565
000060 a8 29 a1 3e ce 6b 68 3e b0 88 2a 3d 91 3a de bd
       0.31477094 0.22697374 0.04163426 -0.108510144
000070 fd ff 99 bc 57 47 8b 3c 5b 94 52 bd aa 2d 7d 3d
       -0.018798823 0.01700179 -0.051411014 0.061811127
000080 ac a0 01 3e 51 72 16 bb 38 a3 85 3d ef e9 03 3e
       0.12658948 -0.0022956321 0.06525272 0.12882207

bias f4 [4]
000000 4a 10 9a be 04 71 48 3f b5 35 6d bf 4e a4 0f 3e
       -0.30090553 0.7829745 -0.92660075 0.14027521

weight f4 [8, 4, 3, 3]
000000 c5 97 01 3e 64 ae 28 3d 6c df f5 bc 17 96 a2 bd
       0.12655552 0.041181937 -0.030013762 -0.079387836
000010 9e bf 16 3d 6e 22 01 3e bb 2b 0b bd ab 5b f3 3c
       0.036803834 0.1261079 -0.03397725 0.029706797
000020 1a 0e 58 bc c2 63 9b bd f4 9c e2 3d 22 9e 93 3e
       -0.013186956 -0.07587387 0.11065093 0.28831583
000030 ca bd 91 3c 4a e3 37 bc 2e fa 28 3d 10 69 83 3e
       0.017790694 -0.0112236235 0.041254215 0.25666094
000040 7e ca 0a bd 29 8e 01 be 48 0c d1 be b4 9c 17 be
       -0.033884518 -0.12651886 -0.40829682 -0.14805871
000050 39 54 8d be 22 06 a5 bd 83 59 5c bd 16 16 43 be
       -0.2760332 -0.0805781 -0.053796303 -0.19051394
000060 9c 25 a9 be bd 5e 0c be f0 1c b7 bd fd dd 2d 3f
       -0.33036506 -0.13708015 -0.08941066 0.6791685
000070 23 dd a1 3e 50 b6 46 be 0e 4a 1c 3e d3 82 a3 3d
       0.31614026 -0.19405484 0.15262625 0.07983937
000080 d0 fc 5c 3c d7 36 34 be 9a e4 a6 be 1e f1 0d bf
       0.01348801 -0.17599045 -0.32596284 -0.5544604
000090 62 84 f3 3d 76 47 18 be b8 f2 46 bd 5b 49 0b be
       0.118904844 -0.1487101 -0.04857132 -0.13602202
0000a0 8d 98 29 3d 6b 2d 55 3c bc e2 60 3d e5 89 a8 3d
       0.04140525 0.013011317 0.05490373 0.08229426
0000b0 31 c4 14 bc 00 cb 5a 3e 80 4a 24 3e 0e 44 93 3d
       -0.009079979 0.21366501 0.16044044 0.07190715
0000c0 51 e5 85 bc 19 9a 60 bd 4c 9e 27 be a7 69 71 be
       -0.016344698 -0.05483446 -0.16368979 -0.2357546
0000d0 74 96 92 be ba 10 8e be 51 33 54 be 66 a3 ec bd
       -0.28630412 -0.27747136 -0.207227 -0.11554603
0000e0 a0 2f 0b be 3a 1c 49 bd e9 99 e4 3b 00 93 0b 3e
       -0.13592386 -0.049099185 0.0069763553 0.13630295
0000f0 cd fd 17 3e db 05 2c 3e be e0 ec 3d cf b4 d7 3d
       0.14842911 0.16799109 0.11566304 0.105325334
000100 26 6a 0d 3d 93 06 a1 be df 71 74 be c0 66 9c be
       0.03452506 -0.31450328 -0.23871563 -0.30547142
000110 c2 47 67 3d 1b 83 cb bc b3 fc 40 3e 6d ec fc 3e
       0.056464918 -0.02484279 0.18846397 0.4939913
000120 b9 b1 06 3e 8a 36 a1 3d d2 30 ea 3d ec 7d 4f bd
       0.13153733 0.078717306 0.11435093 -0.050657198
000130 2c 7c 6c 3d 10 47 0e 3e fb f4 af bd cf 8d 2a be
       0.057735607 0.13894296 -0.08591648 -0.16655658
000140 c0 86 45 bd 48 47 a4 3c 45 1a 11 be 50 9f 70 3d
       -0.04822421 0.02005352 -0.14170177 0.058745682
000150 a9 0d e5 bd 66 7a 14 be a2 4c 00 be 11 dc 8e bd
       -0.11184246 -0.14499816 -0.12529233 -0.06975568
000160 59 89 9e bd d6 61 08 bd 8b 22 f6 3d 66 5c 67 bc
       -0.07741041 -0.03329643 0.12018307 -0.014121151
000170 d1 22 07 be d6 1b 3f bd 54 38 1c be 36 11 01 be
       -0.13196875 -0.046657406 -0.15255862 -0.12604222
000180 63 b8 d0 bb d6 1a 6d bd 0f 11 fb bc cb 4a 88 3d
       -0.006369637 -0.05788692 -0.030647783 0.066548906
000190 a5 9d 13 be 26 24 07 be f1 ac b9 bd d1 e0 ad 3d
       -0.14415605 -0.13197383 -0.09066189 0.08490146
0001a0 97 eb 4a bd 10 8c cb bd 2b 0d 66 bb a8 c2 b3 bc
       -0.049541082 -0.09938824 -0.0035103064 -0.021943405
0001b0 ed ba 11 be 01 1f 20 3e 7b c0 17 be 07 0e 35 3d
       -0.14231463 0.15636827 -0.14819519 0.04420283
0001c0 7e 1d a2 bd cc 7d a8 bd 02 07 c8 bd 21 fc b3 bd
       -0.079157814 -0.08227119 -0.09766962 -0.08788324
0001d0 05 74 e3 bd b1 66 95 3d a5 d5 29 3e 1d 1b 2a bd
       -0.11106113 0.072949775 0.16585405 -0.041529763
0001e0 2f ce 88 3e 53 80 34 3c 5d 6a a6 be 38 e8 2f 3e
       0.26719806 0.011016923 -0.32503024 0.17178428
0001f0 b7 c5 7b be 2b a6 15 bf 8b d8 76 bd b7 8e 10 be
       -0.24587141 -0.5845668 -0.060265105 -0.14116941
000200 cf e9 1c 3e 73 df 3e be 70 56 d0 bd f4 ef 90 3d
       0.15323566 -0.18639927 -0.10172737 0.070770174
000210 31 af 83 be 17 e7 0e 3e 13 cb 1f 3e 2e 03 3c 3e
       -0.25719598 0.13955341 0.1560481 0.18360588
000220 d9 8c 5f be 51 65 99 3d 3d 85 04 be b1 69 0b bf
       -0.21831073 0.07490028 -0.12941451 -0.5445815
000230 00 33 78 be 6d 2f 78 be 46 79 bc 3b f4 d5 50 3f
       -0.24238205 -0.24236841 0.0057517616 0.81576467
000240 a0 8c ed 3c 66 56 e4 bd aa 0c 18 be 9f ea 05 3c
       0.02899772 -0.11149292 -0.14848581 0.008173614
000250 f2 f8 0f 3e 96 0a a9 3d a9 de 0f 3e ea 63 3f 3d
       0.14059809 0.08253972 0.14049782 0.046726145
000260 88 37 88 bd 8d 79 8e bd 06 9b 09 3d 99 d9 97 bc
       -0.06651217 -0.06956778 0.033595107 -0.018536376
000270 3b e6 01 3d 84 5f 6c 3c f5 9c 98 3d c0 81 02 bd
       0.031713706 0.01442707 0.07451812 -0.03186202
000280 cb 7b c6 bd fe 95 6b 3d 17 30 ce bd da 97 19 be
       -0.096915804 0.05751609 -0.10067766 -0.14999333
000290 08 bf ec bd 5a c3 fb bd b1 e2 1f 3e f5 d8 0d 3e
       -0.11559874 -0.1229312 0.1561382 0.13852294
0002a0 71 c6 09 bd 59 81 45 3d 89 0f dc bd 3b 0c 8d 3d
       -0.033636514 0.04821906 -0.107451506 0.068870984
0002b0 7c c7 0a 3e 9c 3c 29 be 6f 13 6d bd 07 62 f8 bd
       0.1355266 -0.16527027 -0.05787986 -0.12128072
0002c0 49 17 86 3d 24 dc 20 be b6 b9 c5 3c 19 6b 12 be
       0.0654741 -0.15708977 0.024136405 -0.14298667
0002d0 4a ef 07 3e 53 99 d3 bc 16 7c b0 bc 3e f7 da 3d
       0.13274875 -0.025829947 -0.021543544 0.10691689
0002e0 d6 9a d9 bd 78 43 51 bd fd 9a de 3d 88 52 bc 3c
       -0.10625236 -0.051089734 0.108694054 0.022988573
0002f0 5a a3 d9 3d 37 c5 85 3b a0 cd 5d be 5f ba 0d bf
       0.1062686 0.0040823477 -0.21660471 -0.55362505
000300 11 7d 8c 3d f2 15 ec bc 0b 83 05 bd 1b ba 39 3e
       0.06859792 -0.028819058 -0.032595675 0.181374
000310 51 00 9f 3d 4b 7c 35 3e d8 b1 0b 3d 08 76 29 3d
       0.07763732 0.17723195 0.034105152 0.04137233
000320 c7 36 b3 3e a3 0e 13 3d ae fc 1a 3d 70 79 02 3e
       0.3500273 0.03590263 0.03783863 0.12741637
000330 72 c7 cc bd d4 15 d8 bd 24 c3 8b bd 0b 71 0d bf
       -0.09998979 -0.105510384 -0.068243295 -0.55250615
000340 de 75 d1 be e6 3a 54 3e 70 ee 3a 3e dd 41 f1 3c
       -0.40910238 0.20725593 0.18255019 0.029450351
000350 47 fd 36 3e dc 77 53 3d c8 82 1e bd f4 9c 79 3e
       0.17870055 0.05162798 -0.03869894 0.24376279
000360 53 2d d2 3d 05 9c 90 3d 7e 43 29 bb ea e6 9c bd
       0.10262551 0.07061008 -0.0025827582 -0.07661231
000370 4b 57 10 bd 10 c7 07 be e1 a6 ef 3d f7 e6 c9 3d
       -0.0352395 -0.1325953 0.117017515 0.09858506
000380 45 ec f0 bd e5 77 6d be 72 98 c9 bd 91 62 92 3c
       -0.11763815 -0.23190267 -0.0984353 0.017869266
000390 5c f0 64 bd a8 0a c9 3d 4a 49 b9 3d 79 0a 3a 3e
       -0.055893287 0.09816486 0.09047182 0.18168058
0003a0 94 29 42 3e f6 41 ce 3d 0e 3a 57 3e 65 2e f6 3d
       0.18961173 0.10071175 0.2101824 0.12020568
0003b0 61 2d 38 3d a9 27 24 3e ae 17 5d bd d6 38 49 be
       0.04496515 0.16030754 -0.05397766 -0.19650587
0003c0 80 b6 49 be 23 0d 87 be f2 d3 07 be c2 04 bc be
       -0.19698524 -0.2637721 -0.13264444 -0.3672238
0003d0 0d 73 3b b9 5c c4 21 be 01 52 ad 3e 48 5a a3 3e
       -0.0001787657 -0.15797561 0.33851627 0.31904817
0003e0 f4 07 40 3c fc 92 2f 3e b4 26 aa 3d b8 88 ef be
       0.011720646 0.17145914 0.08308163 -0.46783996
0003f0 28 03 bc bd a5 27 e5 3d 86 0e 0a 3e c1 4b 5f bd
       -0.091802895 0.11189202 0.13482103 -0.054515604

bias f4 [8]
000000 1c 58 95 3e a2 d4 36 3e cd e6 a6 bd 6e e0 74 3e
       0.29168785 0.1785455 -0.081494905 0.23913738
000010 37 56 1e be 90 aa a7 3d 28 65 0a 3d 7e b6 2f 3e
       -0.15462576 0.08186829 0.033787876 0.17159459

weight f4 [16, 8, 3, 3]
000000 45 51 0c bf 86 ef 68 be 99 00 d3 be a5 5e 02 be
       -0.5481151 -0.22747621 -0.41211393 -0.12731417
000010 2c 29 26 3e d5 34 8f bb d8 d2 aa bd 69 31 ac 3d
       0.16226643 -0.0043703117 -0.083409965 0.08407862
000020 62 6a 8d bd 28 46 5e bc 7f b2 bb 3a 26 65 e0 bd
       -0.069050565 -0.013566531 0.0014320164 -0.109567925
000030 72 d3 aa bc 08 91 93 bd 17 c0 09 be 1d 55 6c be
       -0.020852778 -0.07205397 -0.13452183 -0.23079343
000040 5c bf 07 be 96 c7 26 bd 37 4b 6b bd ae d3 5d 3d
       -0.13256592 -0.040717684 -0.057444777 0.05415695
000050 8c 39 ba bd 9c 30 fc bc a8 88 d8 3d 2b fc f0 3d
       -0.090930074 -0.030784898 0.1057294 0.11766847
000060 48 c8 65 bd d7 14 ee bd ce 95 c8 bd 88 9e ae bd
       -0.056099206 -0.11625069 -0.09794198 -0.08526331
000070 20 15 34 3d fe dc 66 bc 71 d9 43 bd 56 42 d5 bd
       0.04396546 -0.014090775 -0.04781479 -0.10413043
000080 5c 5c f8 3d 50 3c 9c bd 39 24 1f be 70 26 37 3d
       0.12126991 -0.07628691 -0.15541162 0.04471439
000090 88 63 ca bd 98 4e 87 3d f9 f9 ae bd a1 7a da bb
       -0.09882265 0.066067874 -0.08543772 -0.0066674505
0000a0 f7 7f b9 3d c0 d7 43 3d ce 1b 9d 3d 7e 6c cc bd
       0.090576105 0.047813177 0.07671319 -0.09981631
0000b0 c3 7c e9 bd f3 27 14 bd 6c 66 3d 3d fc 71 76 3e
       -0.114007495 -0.03617091 0.046240255 0.24066919
0000c0 7d 95 55 3d e9 bc 30 3d 2f 34 b6 bc 18 d8 f6 3d
       0.052144516 0.04314891 -0.02224168 0.12052935
0000d0 e5 18 5d 3d 08 8d 4f 3b de 7b 92 3e 90 13 e1 3d
       0.05397882 0.0031669755 0.28610128 0.109900594
0000e0 66 d3 06 3e d0 25 a4 3d 99 d8 59 bd c3 64 2e 3d
       0.1316658 0.08015025 -0.05318508 0.042576563
0000f0 a8 64 9f 3d 49 9d e0 bd 29 7e a8 bd 1a 7a 8c 3e
       0.077828705 -0.109675 -0.08227188 0.27436906
000100 f8 7e 78 3d 23 ff 0e 3a 32 c6 1e be 7f a1 57 be
       0.06066796 0.00054548885 -0.15505293 -0.210577
000110 c7 94 11 bd 6b 65 2c be 8f 77 01 bb 0e fc 5d 3d
       -0.035542276 -0.16835563 -0.00197551 0.054195456
000120 66 08 77 3e 8c b5 9a bb 6e a9 d4 bc 57 df 91 bc
       0.24124297 -0.004721349 -0.025959697 -0.017806692
000130 e9 d6 11 3e 36 6b 13 3e 9f 1a 41 bf d7 a4 02 be
       0.14242138 0.14396366 -0.75431246 -0.12758194
000140 54 c8 70 3d b9 bc b4 3d fc 66 97 bd d2 63 91 be
       0.058784798 0.088250585 -0.073926896 -0.2839647
000150 4f 22 fa ba a8 07 c0 bd 53 92 99 be f5 c6 c3 3e
       -0.0019083711 -0.0937646 -0.2999445 0.3823773
000160 2e 5e 8a 3e 09 ac 53 be 75 c7 ae bc 6c 67 85 bd
       0.27024978 -0.20671095 -0.021335343 -0.06513867
000170 17 6b 98 bd 8c 6d ec bd f2 5a ea 3d e5 8a cb 3d
       -0.07442301 -0.11544332 0.11443128 0.099386014
000180 a5 86 eb bd f0 13 ca 3d 08 2a 18 bd 29 fe 2d be
       -0.11500291 0.09867084 -0.03714946 -0.16991486
000190 29 8a 04 ba 58 b0 c5 bd a9 b4 8b bd d7 ac 1c bd
       -0.0005055988 -0.096527755 -0.068215676 -0.03825077
0001a0 f3 83 ac be 6d 23 06 be 69 ff 28 3e 81 f5 a9 bd
       -0.3369442 -0.13099451 0.16503681 -0.08298779
0001b0 ef 96 0f 3c 30 40 7a 3d bd ab de bd 28 b5 88 bd
       0.008764013 0.06109637 -0.108726 -0.06675178
0001c0 33 88 24 bd b0 71 0d bd 95 9a d2 bd 3b 2b 43 bd
       -0.040168952 -0.03453225 -0.102833904 -0.04764865
0001d0 36 3d dc 3d 9e c3 38 bd 0a 9a d2 bd b8 52 d2 be
       0.107538626 -0.04510843 -0.10283287 -0.41078734
0001e0 2c df 4b 3e f3 de c9 3d c0 4f 5b be aa ce 61 3e
       0.19909352 0.09856977 -0.21417141 0.22051492
0001f0 61 b8 f6 3d 87 dd 35 be 10 36 81 be 9f 9e d9 3c
       0.12046886 -0.17760287 -0.2523656 0.026564894
000200 20 05 a4 bd 5e a1 8a bd 7f 71 77 3d 73 e0 5e 3e
       -0.0800879 -0.067690596 0.060410973 0.21765308
000210 1a 79 66 be e3 04 9c be ad b0 83 bd 0b 1d ca be
       -0.22507134 -0.30472478 -0.064301826 -0.39475283
000220 8f cd b9 be d4 ff cd be f6 b5 97 3c 37 d9 0a be
       -0.3628964 -0.40234244 0.018519383 -0.13559423
000230 79 8a 43 be cf ef b3 3e 1f 79 b2 bd 39 6f 32 be
       -0.19095792 0.35143897 -0.08714508 -0.1742524
000240 64 1b 74 3e 54 37 9c 3d 45 b4 bc be 40 c5 47 3e
       0.23838574 0.076277405 -0.36856285 0.19508839
000250 31 40 3d 3d 01 9f 77 be f3 ac 8b 3e a5 f7 15 3e
       0.046203796 -0.24181749 0.27280387 0.1464525
000260 ef 8d fa bd 1c de 1c 3d c6 9e 61 be 35 b3 ec bc
       -0.12234103 0.038297758 -0.22033224 -0.028894046
000270 48 88 87 3c f7 9b 80 be 2a a4 1c 3e 70 77 dc bc
       0.016544476 -0.25118992 0.15296999 -0.026912421
000280 0c 4d 5d be a8 51 96 3e 72 13 73 3c c6 47 af bd
       -0.21611422 0.29359174 0.014836179 -0.085586116
000290 3f 6d dd 3d 97 b6 0b 3c ee c8 e2 bd eb 54 9a 3d
       0.10811853 0.0085274195 -0.110734805 0.07535728
0002a0 7f 80 ac 3d 90 8d a0 3d da c8 8e 3b 04 5b 04 bb
       0.08422946 0.07839501 0.0043574395 -0.002019585
0002b0 88 5d 00 3e d1 03 30 3e 9e 5f fe 3a 69 15 7c 3d
       0.1253568 0.17188956 0.0019407158 0.061543856
0002c0 00 08 08 3e b6 d7 56 be ac 72 14 be a1 18 f2 3a
       0.13284302 -0.20980725 -0.14496869 0.0018470475
0002d0 44 fa 9f bd 2b 8b 15 bd cc 99 b8 3d cb 5b c0 3c
       -0.07811406 -0.036509674 0.090137094 0.02348127
0002e0 9b f7 19 3a 24 13 87 3c 13 91 e2 3d 0e 4c a6 bc
       0.0005873383 0.01648862 0.11062827 -0.020299938
0002f0 e1 6a 9e bd 08 47 77 be 9e 73 13 be c5 e5 b9 3e
       -0.07735229 -0.2414819 -0.14399573 0.36308113
000300 f2 c6 30 bd 3d 72 54 3d 0a 28 41 3e 62 35 fe 3d
       -0.04315848 0.05186676 0.1886293 0.12412526
000310 27 9a e8 3d fc 6b fa 3d c8 54 69 be 44 8b 04 3e
       0.11357527 0.12227628 -0.22786248 0.1294375
000320 80 77 91 bd e8 9c cb bd c6 6e 33 3c db 51 a9 be
       -0.07102871 -0.09942037 0.010951703 -0.33070263
000330 82 38 10 3d 51 9b c4 3c 1e 62 8b be 1a 36 f2 be
       0.03521014 0.023999842 -0.27223295 -0.473069
000340 ed 85 30 be 9b 3f 40 3e d4 b9 28 be b5 4c 06 bd
       -0.17238589 0.18774264 -0.16477138 -0.032787997
000350 1d ea 00 3e 77 80 40 be a3 d6 82 bd 37 bf 91 3d
       0.12589307 -0.18799005 -0.06388595 0.071165495
000360 17 f8 7f bf f3 be 1e be 51 df 1c 3d ad 68 12 be
       -0.9998793 -0.15502529 0.03829891 -0.14297743
000370 63 54 0f 3e 04 72 3c 3c 05 cc 4a 3e 9b a2 64 3e
       0.13997035 0.011501793 0.1980439 0.22327654
000380 57 38 a4 3c d0 51 8a 3d b4 75 2b be 87 4c 8a be
       0.020046396 0.06753886 -0.16744119 -0.2701151
000390 80 a2 72 3d 8a 87 7f 3d fa f6 59 be eb f3 56 be
       0.059237003 0.06238512 -0.2128562 -0.20991485
0003a0 21 16 02 be f0 a1 7e be 0e 08 d4 3d a8 45 a9 bd
       -0.12703754 -0.24866462 0.10353099 -0.08265239
0003b0 6b 3e 5f 3d 64 50 6a bd 08 91 16 3d e7 95 a4 bd
       0.054502886 -0.057205573 0.036759406 -0.08036404
0003c0 bd 07 de bd 7b 87 e3 bd d6 1e 7c bb 0f ca 26 be
       -0.1084132 -0.11109825 -0.0038470528 -0.16288017
0003d0 a5 0d 69 3e ec 67 ec bd 45 17 a5 bd 46 d4 1c 3d
       0.22759111 -0.11543259 -0.08061079 0.038288377
0003e0 a5 b6 00 be 94 f0 9b bc 46 34 17 bd f6 f4 e7 be
       -0.12569673 -0.019035615 -0.036915086 -0.45304078
0003f0 1b 11 3e 3d f0 5e b4 bc 84 19 2d bd 0f 59 41 bd
       0.04640303 -0.022017926 -0.04226066 -0.047204074

bias f4 [16]
000000 f2 3f 8f 3e ca 0e 95 3e 30 b0 c0 bd ed 38 a5 3e
       0.27978474 0.29112846 -0.09408605 0.32269993
000010 e1 b6 8f 3e 21 2a 18 3d 17 81 0f 3e b1 a8 b8 3e
       0.28069213 0.037149552 0.14014088 0.360662
000020 09 d4 b0 3d 1d 7d a3 bd 2a 97 95 3e 6d 35 7a 3e
       0.086341925 -0.07982848 0.29216892 0.24434443
000030 0a b8 03 3f dd 8b 90 3e 2d be 10 3f 8e 96 ea bd
       0.51452696 0.28231707 0.56540185 -0.11454497

weight f4 [32, 16, 3, 3]
000000 c4 3f 16 bf 0f e8 9c 3d 7f 7a 04 bf ee 88 13 3f
       -0.5869105 0.07661449 -0.51749414 0.57630813
000010 df 22 49 3e 4a a3 01 3f ea d4 a0 be 5e 6f 41 3c
       0.19642209 0.50639784 -0.3141244 0.011806337
000020 56 af 69 be d3 eb d9 be e3 92 c2 be 9a cf 89 3e
       -0.22820792 -0.42562732 -0.3800269 0.269162
000030 3b 84 83 3d 5f 6c f9 bd 48 98 c2 bd e5 4e 8e bd
       0.06421705 -0.12178873 -0.095017016 -0.06948642
000040 72 ab 8a 3d 55 ec ff 3d 5a 24 2a 3e 57 34 49 3d
       0.06770982 0.12496249 0.1661543 0.04912218
000050 57 8a 83 be de 3a 94 3d bb 60 9c 3d bb 99 61 bd
       -0.25691482 0.072377905 0.076356374 -0.05507825
000060 30 1f 2a 3e 2b eb 0b be 0d dd 1a 3e e7 d1 6a bd
       0.1661346 -0.13663928 0.15123387 -0.057329085
000070 6b e8 c6 bd 22 d3 ea 3b ac b0 82 3e b0 5d 28 be
       -0.09712299 0.0071662823 0.25525415 -0.16441989
000080 b9 e8 87 3e 3f 9f 0b be 7a f7 93 3d 91 d1 86 be
       0.2654474 -0.13634966 0.07224937 -0.2633176
000090 b8 47 f8 be 63 c1 88 bd 43 03 40 3e b9 58 38 3e
       -0.48492217 -0.066775106 0.18751244 0.18002595
0000a0 57 2a e6 3c b2 e3 3a 3c 7d 82 05 be b7 b8 28 bd
       0.028096361 0.011406826 -0.13038059 -0.041191783
0000b0 15 d7 23 3e 8a e6 0c be 2e 90 ec bd 30 1c 1e bf
       0.16000016 -0.13759819 -0.115509376 -0.6176176
0000c0 e2 8d 53 3e a5 79 18 3e ed 15 11 3f 90 ea 71 be
       0.20659593 0.14890154 0.5667408 -0.23624635
0000d0 2a 64 6c 3e 69 14 bd be 07 67 b3 3d 9e b7 c4 3d
       0.23085085 -0.36929634 0.08759885 0.09605335
0000e0 62 28 83 3b 6f 99 f5 bd 40 42 86 3b 15 b6 bc 3d
       0.0040026167 -0.11992156 0.004097253 0.09214417
0000f0 53 f8 f1 3c c5 60 65 bd 0a b4 d1 be 48 8d b2 bc
       0.029537356 -0.05600049 -0.4095767 -0.021795884
000100 a0 a0 9d bd 15 46 ef be 53 bc 04 be fb e9 64 3e
       -0.076966524 -0.46733156 -0.12962465 0.22354881
000110 78 34 12 3f 4f e5 a1 3e a1 4f 8b be 39 ac 60 be
       0.5711131 0.3162026 -0.2720919 -0.21940698
000120 8e ea 61 bd bf 4c 56 be 1c 08 1b be e4 ef 6f 3e
       -0.05515533 -0.20927714 -0.15139812 0.23431355
000130 15 94 ae 3d d3 83 75 3e 5a 96 c5 bc dd 9a 10 be
       0.08524338 0.23976068 -0.024119545 -0.14121576
000140 98 85 6a 3e 22 1f 5f be b3 a9 b1 bd 4f e9 04 bf
       0.22902524 -0.2178922 -0.08674946 -0.519185
000150 9a 37 5b 3e e6 50 f8 bb af a7 7c be e2 68 36 be
       0.21407929 -0.007578003 -0.24673341 -0.17813447
000160 a3 ed 37 bb 09 03 04 3f ad 17 96 bd 7c 7d 2e bd
       -0.0028065227 0.5156713 -0.073287345 -0.04260014
000170 dd 3b 85 3e fc 51 88 3e ce 3e 28 3b 80 1e ac bb
       0.26022235 0.2662505 0.00256722 -0.0052526593
000180 4f 82 3e be 36 a3 27 bb 6e 37 52 bd 03 75 8a bd
       -0.18604396 -0.002557946 -0.051322393 -0.067605995
000190 30 c0 af 3e ef 7f a7 3e 91 0a 53 3d d5 dc a2 be
       0.34326315 0.32714793 0.05152375 -0.31809106
0001a0 68 70 93 be ef 32 d0 bd 51 22 8e 3e a4 5c 10 bc
       -0.28796697 -0.10165965 0.27760556 -0.00881115
0001b0 31 fb 9d 3d 8c 96 de bd 93 0b 4d be 67 46 d8 bd
       0.077139266 -0.10868558 -0.20023946 -0.10560303
0001c0 62 1f ae 3d 91 06 39 be b8 0f 5a 3e 51 12 a9 bd
       0.085020795 -0.18068911 0.21295059 -0.08255447
0001d0 35 1a 7f be bc fc ef bd 94 16 66 be bd 0b c1 be
       -0.24912341 -0.11718127 -0.2246955 -0.37704268
0001e0 75 ce 70 3e 7a 6a 75 3e c5 72 c2 3e b9 7a 81 be
       0.23516257 0.23966399 0.37978187 -0.25288942
0001f0 3d 08 1f bd 74 18 3f 3e 66 03 fe 3d 02 64 38 be
       -0.038826216 0.18661672 0.12402992 -0.180069
000200 f3 ae 38 3f 30 f5 5d 3c 82 50 00 bf 9b 33 23 3d
       0.7214195 0.013547227 -0.50122845 0.039844137
000210 05 84 0b 3d 23 aa d3 3d f1 dd 60 3d 1b f4 da 3c
       0.03406145 0.103351854 0.05489916 0.026727727
000220 d5 10 5c bd 48 7a 81 bd 90 e2 f5 3c a7 51 1f bd
       -0.05372699 -0.063221514 0.03001526 -0.03889623
000230 0b e6 73 3b bf fc 1f 3d a4 05 4a bc 66 5b 9c bc
       0.0037215974 0.039059397 -0.012330446 -0.01908655
000240 cd af a1 bd 7f 38 9e be 1e 24 a6 3c f5 7b 8e 3e
       -0.078948595 -0.30902478 0.020280894 0.27828947
000250 02 2e 72 bd 0f f7 ef 3d 50 65 90 be a1 f3 b4 3d
       -0.059125908 0.117170446 -0.28202295 0.08835531
000260 5c 93 81 b9 7f 95 88 3e 93 f7 9e 3d f5 b5 e4 bd
       -0.0002471459 0.26676556 0.07762065 -0.11167518
000270 74 bf 1b be f1 64 31 3d 5e fa 10 3e 05 bf 9b 3e
       -0.15209752 0.043309156 0.14158008 0.30419174
000280 c9 8a f7 3d 69 d9 03 3e ac 61 be bd 70 dc 05 be
       0.12087018 0.12875904 -0.09295973 -0.13072371
000290 96 fc a1 3e fd 64 11 3e 81 64 ed bd 9f 79 0c 3e
       0.3163802 0.1419868 -0.11591435 0.1371827
0002a0 af 39 38 3f 36 6a 04 bf a0 5f 35 3e 78 be 8e bd
       0.7196302 -0.51724565 0.1771226 -0.06969923
0002b0 92 c4 0d bd a3 62 ff bd c5 44 ac bd 38 e2 20 be
       -0.034611292 -0.12469985 -0.08411554 -0.15711296
0002c0 81 89 77 3e e7 d8 9f bd dc c9 32 be e6 78 79 bd
       0.24173547 -0.07805043 -0.17459816 -0.060906313
0002d0 8c bf d0 3e 3e ee fb bd e7 88 d0 bc 46 98 65 be
       0.4077114 -0.123013005 -0.025455905 -0.22421369
0002e0 d7 b1 18 3e b9 27 3a bd 2b 0b 19 3e 06 f5 87 3c
       0.1491159 -0.04544804 0.14945666 0.016596328
0002f0 ce 91 39 be fb 1c d0 bd 2e 81 0f be 4b 76 06 bd
       -0.18122026 -0.101617776 -0.14014122 -0.032827657
000300 84 83 1a be fe 50 aa 3d 17 cf 95 3d ff 72 dd bd
       -0.15089232 0.08316229 0.0731489 -0.108129494
000310 2a 60 f2 bd 0d 84 f8 bd 87 9f a3 3e f3 21 39 be
       -0.11834748 -0.12134562 0.31957647 -0.18079357
000320 74 2d ad be 14 ff aa be bf 36 81 3e f8 9c 3e 3e
       -0.3382374 -0.33397734 0.2523708 0.18614566
000330 e9 cc 06 be 25 da d9 3d 61 53 ad be 09 44 6a 3c
       -0.13164105 0.10637311 -0.33852676 0.014298447
000340 56 f2 ba be 8d 1a 8d 3d 6a b7 66 3e e4 b1 53 3e
       -0.36513013 0.0688983 0.22530904 0.20673329
000350 d5 07 1e 3e 6c 8a b7 be 0f 05 2c 3d f4 1e f3 bc
       0.15432675 -0.35847795 0.04199701 -0.029677846
000360 4d 73 02 be c9 25 05 bf 8d 53 36 3f 48 c6 a8 3e
       -0.12739296 -0.5201078 0.7122124 0.32963777
000370 d0 f7 9c bd 22 5f b4 bd 6c 97 ee 3d 77 49 a5 be
       -0.07664454 -0.08807208 0.11649975 -0.32282612
000380 93 b2 30 3e f0 fc 11 3d 13 15 42 3e 90 85 79 3d
       0.1725562 0.03564161 0.18953352 0.06091839
000390 80 10 15 bd 71 1f aa bc bc 04 75 be f0 b3 d1 be
       -0.03639269 -0.020766946 -0.23927587 -0.40957594
0003a0 4f cf fa 3d 03 56 3d be 89 26 6a be 9a ee 49 3e
       0.12246572 -0.18489842 -0.22866262 0.19719926
0003b0 81 2f f1 3c 08 67 c4 bd 8f 52 00 be 40 02 82 3d
       0.029441597 -0.09589964 -0.12531494 0.063480854
0003c0 55 03 f7 3e 08 9c 1a 3d 0d 73 c3 3c 47 3a cf 3d
       0.4824473 0.03774646 0.023858571 0.101185374
0003d0 be e8 6a 3b 93 37 57 be a3 e9 03 3e f8 0b b2 bd
       0.0035844292 -0.21017294 0.12882094 -0.08693689
0003e0 1d 5f 93 3c 66 66 dd 3e 82 bb 56 be 12 82 e9 3d
       0.01798969 0.43242186 -0.20969966 0.11401762
0003f0 a3 e4 b6 bd 45 e5 21 be 44 28 cc bd df 19 74 be
       -0.08930328 -0.15810116 -0.099686176 -0.23837994

bias f4 [32]
000000 5e 58 9e 3e a0 13 2c bf df c1 88 be 7f b2 28 bf
       0.30926794 -0.67217445 -0.26710412 -0.65897363
000010 61 f8 db bc 39 91 9a be b4 99 85 bd 1b f6 cb 3e
       -0.026851835 -0.3018892 -0.06523457 0.398362
000020 2b 45 45 be 75 bb 14 3d 92 4f 54 bd a8 56 8e 3c
       -0.19264667 0.036311585 -0.051833697 0.017375305
000030 3b 19 20 3e 3a 45 17 bf bc 99 93 be 7f 85 36 bf
       0.15634625 -0.59090006 -0.28828228 -0.7129745
000040 ca 49 ec 3e 7d 1d f9 3e 06 37 28 3e 23 b4 74 be
       0.46150047 0.4865531 0.1642724 -0.23896842
000050 1a fb e0 be 75 3b 46 bf 79 1e 86 be e4 7b 83 be
       -0.43941575 -0.77434474 -0.26195124 -0.2568046
000060 a2 92 9c be 01 4d 0a be 29 f4 9b bd 36 1c 2a bd
       -0.30580622 -0.13505937 -0.07614929 -0.04153081
000070 ab 30 30 3e 84 0b 59 bf 1e 8a d3 3e b5 88 3e 3e
       0.17206065 -0.84783196 0.41316313 0.18606837
